example/assets/models/emotion2vec/classifier.onnx (onnx, 792902 bytes, 4 tensors)

pre_net.bias f4 [256]
0.03389888 0.03202363 0.012259769 0.020418579 0.04010913 -0.016799863 0.009480927 -0.016274298
-0.014859916 -0.024756262 -0.017604591 0.035123073 0.032877848 -0.0040097497 0.030491209 -0.010348936
0.030704971 -0.0013823678 -0.023526957 0.020443328 -0.019056143 0.022406576 -0.05086266 0.022288894
0.0038300492 0.032901842 -0.02932821 0.0237958 0.013566038 0.009178683 -0.02315308 -0.031120786
-0.03285629 0.02054803 -0.0275931 -0.0064205695 -0.009482616 -0.02305509 0.034934927 -0.0073385155
0.028106214 -0.02349831 0.008105955 -0.021736706 -0.0025428373 0.015778072 -0.03943292 -0.041287087
0.022108428 -0.04214875 -0.041285712 0.010056929 -0.03472261 -0.029916853 -0.008029746 0.008235722
-0.0072059133 -0.025494268 0.026509251 0.00949651 0.008377783 -0.030214986 -0.03400838 -0.0028223628
-0.015217645 0.016097235 0.0055266907 0.03129933 0.003479256 -0.038246952 0.0026032676 0.014287504
0.010047334 0.011933439 -0.005962339 0.0010728568 0.02634189 -0.030434096 0.026946355 -0.010879376
0.035258338 -0.0008975099 0.024791956 0.01869681 0.0286815 -0.03931443 -0.04477237 -0.007644301
-0.008152071 0.009000984 -0.026041579 0.030937111 -0.023598596 0.0140774 -0.0233619 -0.017246183
0.004976871 0.0064891083 0.0002599841 0.01528965 -0.0015820432 0.0016269721 0.008737593 0.01511156
0.017550465 0.01170619 -0.018417178 -0.009486406 0.0057057785 0.0068101995 0.012434541 0.019728728
0.029844904 0.01067637 -0.017444432 0.020603145 -0.0029713276 -0.0009687863 0.0332559 -0.005647551
0.0113241 0.024754059 -0.017910425 0.031182325 -0.03767662 -0.021624487 -0.021272575 0.034705494
-0.021626683 -0.009546406 0.019077003 0.009317465 -0.042906176 0.009129698 0.024140501 0.008509072
0.017847728 -0.0072083957 -0.017053388 0.0033015378 0.029648304 0.028267639 0.0382465 -0.005260089
0.018988969 -0.0020412018 0.020233847 0.0022512777 0.027232705 -0.040513817 -0.03840151 0.012458095
-0.017676372 0.0049919602 0.019125756 0.024226792 0.01968037 0.04147616 -0.006223166 0.035547014
-0.006471859 -0.013362687 -0.00872755 -0.022215696 -0.028510852 -0.013396623 -0.039717987 -0.026407441
0.021145795 -0.022908932 -0.003362091 -0.012727158 0.0043815337 -0.01284027 -0.021783004 0.01244302
0.03559008 -0.0087775625 -0.01808476 -0.012355746 0.0025111246 0.042965934 -0.028436886 -0.038906593
0.025021618 -0.014934065 0.0036792948 -0.03684317 0.008796029 0.0028477416 -0.0067744926 -0.014565166
0.020807067 -0.020335967 0.042467073 0.0011237401 0.025436357 0.03602061 0.031011648 -0.008434708
-0.021602852 0.010683587 -0.016580835 -0.00671728 -0.0026505266 -0.0057010585 -0.0029329057 -0.0251749
0.019039813 0.029066348 -0.010553626 0.0031354048 -0.035917565 0.000105402665 -0.011461315 -0.0062559526
-0.006098688 0.0028825388 -0.011222567 0.021200221 -0.013274737 0.02032257 -0.015952352 -0.013074948
-0.03990162 -0.016675847 -0.016146649 0.010862258 -0.022758527 0.0029336046 -0.018129759 0.013831575
0.008636228 -0.031143466 -0.024295548 -0.0121484585 -0.028624138 0.009975537 -0.009043892 -0.016197305
0.022104817 -0.0050229616 -0.024022968 -0.042790238 0.010396041 -0.013504643 -0.00807899 0.011253867
0.001381855 -0.00838393 0.031134577 0.0162152 0.0058529703 -0.011147883 0.036341313 0.003934584
00000000: 8dd9 0a3d 362b 033d 33dd 483c dd44 a73c
00000010: 7949 243d de9f 89bc e455 1b3c ad51 85bc
00000020: 0177 73bc a5cd cabc 8137 90bc 36dd 0f3d
00000030: ecaa 063d 3864 83bb b3c8 f93c 958e 29bc
00000040: fe88 fb3c 9130 b5ba 9bbb c0bc c478 a73c
00000050: a11b 9cbc ff8d b73c 5d55 50bd 3397 b63c
00000060: 9001 7b3b 15c4 063d b741 f0bc 69ef c23c
00000070: 1644 5e3c 3062 163c 87ab bdbc 05f1 febc
00000080: 5194 06bd 5854 a83c ed0a e2bc a463 d2bb
00000090: f95c 1bbc 07de bcbc ed17 0f3d ee77 f0bb
000000a0: 013f e63c 877f c0bc d7ce 043c 2d11 b2bc
000000b0: bba5 26bb 0441 813c 6a84 21bd a61c 29bd
000000c0: bc1c b53c 2ba4 2cbd 351b 29bd d1c5 243c
000000d0: 4c39 0ebd 3014 f5bc 328f 03bc 1fef 063c
000000e0: 951f ecbb 5bd9 d0bc ee29 d93c 4097 1b3c
000000f0: f842 093c 6b85 f7bc 5f4c 0bbd 64f7 38bb
00000100: 6e53 79bc 59de 833c 3e19 b53b ba33 003d
00000110: 3b04 643b d6a8 1cbd 959b 2a3b 2316 6a3c
00000120: 939d 243c 7984 433c ba5f c3bb 1a9f 8c3a
00000130: f3ca d73c ed50 f9bc 9abe dc3c 693f 32bc
00000140: 0c6b 103d df46 6bba 8018 cb3c 0d2a 993c
00000150: 77f5 ea3c 2b08 21bd 3c63 37bd 0b7d fabb
00000160: 4490 05bc dd78 133c 2655 d5bc d36f fd3c
00000170: d851 c1bc e5a4 663c 7561 bfbc de47 8dbc
00000180: 0515 a33b 96a2 d43b 7a4e 8839 7181 7a3c
00000190: 905c cfba 2040 d53a 1f28 0f3c 7a96 773c
000001a0: fec5 8f3c 52cb 3f3c 9fdf 96bc df6c 1bbc
000001b0: 8af7 ba3b 1828 df3b 3fba 4b3c 249e a13c
000001c0: 4d7d f43c f1eb 2e3c a0e7 8ebc edc7 a83c
000001d0: 9bba 42bb 26f6 7dba 5737 083d 170f b9bb
000001e0: b888 393c 06c9 ca3c e2b8 92bc 1372 ff3c
000001f0: cd52 1abd d625 b1bc d343 aebc 5927 0e3d
00000200: 712a b1bc 8768 1cbc 6047 9c3c 48a8 183c
00000210: 63be 2fbd bb94 153c 4dc2 c53c a269 0b3c
00000220: 6635 923c 6834 ecbb 8cb3 8bbc 9d5e 583b
00000230: 00e1 f23c 8991 e73c 5da8 1c3d d35c acbb
00000240: c18e 9b3c afc5 05bb 74c1 a53c 2c8a 133b
00000250: 1f17 df3c d1f1 25bd e74a 1dbd 0a1d 4c3c
00000260: 0ace 90bc 9993 a33b 9ead 9c3c 4477 c63c
00000270: ba38 a13c e8e2 293d b3eb cbbb bf99 113d
00000280: e311 d4bb 2cef 5abc fffd 0ebc b1fd b5bc
00000290: 978f e9bc 827d 5bbc 54af 22bd 6b54 d8bc
000002a0: f239 ad3c 83ab bbbc 8756 5cbb 9285 50bc
000002b0: f892 8f3b ff5f 52bc 4572 b2bc cfdd 4b3c
000002c0: e7c6 113d c4cf 0fbc 7e26 94bc c16f 4abc
000002d0: ae91 243b 0cfd 2f3d 79f4 e8bc 855c 1fbd
000002e0: 23fa cc3c 02ae 74bc 5320 713b dde8 16bd
000002f0: 381d 103c 2da1 3a3b 90fc ddbb bca2 6ebc
00000300: 9573 aa3c 9d97 a6bc f4f1 2d3d 764a 933a
00000310: e85f d03c 598a 133d 240c fe3c bb31 0abc
00000320: 77f8 b0bc 360a 2f3c 88d4 87bc a11c dcbb
00000330: 75b4 2dbb f2cf babb fe35 40bb 983b cebc
00000340: 62f9 9b3c 8d1c ee3c 1ee9 2cbc 5d7b 4d3b
00000350: 4c1e 13bd a00b dd38 3dc8 3bbc bcfe ccbb
00000360: 81d7 c7bb fae8 3c3b dcde 37bc 16ac ad3c
00000370: 487e 59bc 857b a63c 82ae 82bc 4f38 56bc
00000380: e26f 23bd c99b 88bc fa45 84bc 9df7 313c
00000390: 1770 babc b841 403b dc84 94bc d59d 623c
000003a0: f77e 0d3c 9520 ffbc 7507 c7bc 540a 47bc
000003b0: 2b7d eabc 6f70 233c d52c 14bc 36b0 84bc
000003c0: 2915 b53c a897 a4bb d1cb c4bc d144 2fbd
000003d0: 2854 2a3c 9442 5dbc bd5d 04bc 2462 383c
000003e0: 5c1f b53a c05c 09bc f10d ff3c bdd5 843c
000003f0: 46ca bf3b 9ca5 36bc a1da 143d afed 803b

post_net.weight f4 [4, 256]
-0.023981437 -0.034931097 0.10411251 -0.0706702 -0.043572832 0.057525743 0.061419494 0.035180803
0.10549727 0.06655158 0.09692234 0.07204549 -0.095087714 -0.04697569 -0.06413714 -0.043847226
0.056713983 -0.011195886 -0.15564086 -0.08924212 0.06886217 0.045716032 -0.037555777 0.04174306
0.074801445 -0.101162985 -0.03009785 0.031763356 -0.07726098 -0.04603552 -0.12020303 -0.018743623
-0.02632113 0.06086084 -0.108541586 0.06535593 -0.008694849 0.045202985 -0.10283098 0.019268248
0.07142475 0.065241575 0.037179198 0.0032925564 -0.061503414 0.03391011 0.029504616 0.09325727
-0.06562881 0.073794164 0.052255787 0.005628758 0.04335472 0.073418975 0.076622985 0.0889486
-0.06101683 0.02684585 0.02721322 -0.038324367 -0.0799007 0.009937657 0.0824174 -0.10113597
-0.10632761 -0.06729207 0.07657869 -0.077868655 -0.039773103 -0.055390604 -0.0089927865 0.086271584
-0.08936456 -0.0034616978 0.07860772 0.06811505 -0.14068934 0.058248818 -0.08325436 0.013333151
-0.054026585 0.07615288 0.110265784 0.054163363 -0.066464506 0.09675716 0.09940163 -0.034695078
-0.07915361 0.037033927 0.091400966 -0.13802925 -0.1614868 0.14851227 0.09092339 -0.03983848
-0.048280902 0.08339223 0.07203746 0.083535604 -0.022283869 0.07168263 -0.14251868 -0.017012518
-0.025404554 0.056475032 0.10210299 -0.01003931 -0.038130216 0.06121495 0.052542917 0.064688504
0.082537316 0.0393962 -0.09982113 0.03183891 0.067600295 0.062080715 0.022370104 -0.06681771
-0.062589526 -0.026517777 -0.06511315 0.06458799 -0.006297797 -0.065711215 -0.05878836 -0.046832398
0.10223541 -0.10886418 0.099032186 0.06381425 0.098886974 -0.075493075 0.014547708 0.09513442
0.008490366 0.013030483 0.003491012 0.058745973 0.09263448 -0.058602557 0.044945125 -0.06854793
0.037499506 -0.047950204 0.003753681 -0.09039463 -0.0055394894 0.017316036 0.038674995 0.023692891
-0.10293995 -0.0869876 0.025557956 0.009118559 -0.055908244 -0.022977207 -0.021131797 -0.05661803
0.05610273 0.047137056 0.11738651 -0.025735896 0.14978583 -0.14454763 0.04279829 0.097774744
0.08387152 0.038520366 0.037959807 0.07267742 0.008200953 0.059056398 -0.09995988 0.07749919
-0.11377413 -0.16852996 -0.09390595 0.032985143 -0.034408942 -0.06184131 0.039992616 0.08224407
0.07314565 0.099752456 0.03662079 0.12777518 0.11094137 -0.12587887 -0.07423465 -0.08408952
-0.06736621 -0.1086112 -0.05583664 -0.053604726 -0.071701586 -0.07271237 -0.12666671 -0.10852277
-0.11419881 -0.0050655496 0.090467885 -0.03535335 0.016713003 0.0151226735 -0.046956148 -0.0009784666
-0.04360833 -0.17080316 0.097341806 -0.1402492 0.03919847 0.06813126 -0.035689436 -0.022556802
0.12908398 0.07592845 -0.06149448 -0.001963237 -0.06981392 0.05765765 0.008170355 0.07259593
0.08852156 -0.06554776 0.08879219 0.014239145 0.023752803 0.05683877 -0.01677923 0.040111933
0.049504843 -0.14362863 -0.06778513 -0.08152964 -0.005300642 0.004192617 0.02565553 0.08695733
0.03952562 -0.12479214 -0.096366435 -0.07151967 0.037466194 0.044314865 0.110214956 0.035436936
0.10004564 -0.03305466 0.0588271 -0.08942139 0.10878774 -0.12825121 -0.041881498 0.04620758
00000000: b874 c4bc e913 0fbd f138 d53d 8abb 90bd
00000010: 6d79 32bd 1da0 6b3d 0293 7b3d bf19 103d
00000020: f40e d83d 324c 883d 387f c63d 968c 933d
00000030: 59bd c2bd 9569 40bd 555a 83bd 2699 33bd
00000040: ec4c 683d f36e 37bc 5160 1fbe 93c4 b6bd
00000050: 9c07 8d3d bc40 3b3d 16d4 19bd c5fa 2a3d
00000060: 8031 993d 8a2e cfbd c48f f6bc 4b1a 023d
00000070: 013b 9ebd be8f 3cbd 022d f6bd 3a8c 99bc
00000080: 699f d7bc 3749 793d 0d4b debd 54d9 853d
00000090: d774 0ebc c426 393d 0d99 d2bd 72d8 9d3c
000000a0: 2447 923d 609d 853d 3749 183d eec7 573b
000000b0: 01eb 7bbd 54e5 0a3d aab3 f13c abfd be3d
000000c0: 6668 86bd 6521 973d 2a0a 563d 7271 b83b
000000d0: b894 313d b05c 963d 83ec 9c3d af2a b63d
000000e0: c9ec 79bd d4eb db3c 42ee de3c 03fa 1cbd
000000f0: faa2 a3bd 8ed1 223c 74ca a83d 6020 cfbd
00000100: 4ac2 d9bd 6dd0 89bd 4ad5 9c3d 9a79 9fbd
00000110: 1fe9 22bd 42e1 62bd 7b56 13bc 28af b03d
00000120: c404 b7bd a7dd 62bb 16fd a03d e77f 8b3d
00000130: de10 10be 5096 6e3d 4381 aabd 4a73 5a3c
00000140: fb4a 5dbd 0bf6 9b3d 07d3 e13d 67da 5d3d
00000150: 8b1e 88bd 9e28 c63d 1593 cb3d 6d1c 0ebd
00000160: 4a1b a2bd e3b0 173d 6e30 bb3d 8a57 0dbe
00000170: cc5c 25be 9a13 183e 0b36 ba3d ad2d 23bd
00000180: 32c2 45bd 8cc9 aa3d 6088 933d b714 ab3d
00000190: a98c b6bc 58ce 923d 6bf0 11be d65d 8bbc
000001a0: 361d d0bc 5d52 673d 5f1b d13d eb7b 24bc
000001b0: 6e2e 1cbd 87bc 7a3d 3e37 573d 687b 843d
000001c0: 5309 a93d e95d 213d 056f ccbd 8469 023d
000001d0: 0672 8a3d 5948 7e3d 8241 b73c b9d7 88bd
000001e0: f02e 80bd cf3b d9bc 0b5a 85bd b546 843d
000001f0: c05d cebb 9a93 86bd 10cc 70bd 54d3 3fbd
00000200: cc60 d13d 2ff4 debd 63d1 ca3d 0cb1 823d
00000210: 4185 ca3d 1d9c 9abd 8359 6e3c d6d5 c23d
00000220: 2d1b 0b3c cf7d 553c 76c9 643b 9e9f 703d
00000230: 25b7 bd3d 3c09 70bd 6118 383d db62 8cbd
00000240: 1599 193d 6f67 44bd 5100 763b d220 b9bd
00000250: 9b84 b5bb 5cda 8d3c ac69 1e3d 9817 c23c
00000260: 2ed2 d2bd 8e26 b2bd eb5e d13c 0266 153c
00000270: 0b00 65bd b23a bcbc 971c adbc 4fe8 67bd
00000280: facb 653d c912 413d 5768 f03d 16d4 d2bc
00000290: 7561 193e 4b04 14be 424d 2f3d 203e c83d
000002a0: d5c4 ab3d 88c7 1d3d be7b 1b3d e6d7 943d
000002b0: 4a5d 063c 1fe5 713d c4b7 ccbd e5b7 9e3d
000002c0: 6902 e9bd 1e93 2cbe c351 c0bd 6e1b 073d
000002d0: 64f0 0cbd 504d 7dbd 4ccf 233d 946f a83d
000002e0: 63cd 953d 044b cc3d aeff 153d 7fd7 023e
000002f0: 3b35 e33d 64e6 00be 5608 98bd 2037 acbd
00000300: 4cf7 89bd 8c6f debd f6b4 64bd a190 5bbd
00000310: 48d8 92bd 39ea 94bd ebb4 01be 3041 debd
00000320: 11e1 e9bd e9fc a5bb 3a47 b93d adce 10bd
00000330: b5e9 883c 17c5 773c 1755 40bd e43f 80ba
00000340: a69e 32bd 06e7 2ebe 245b c73d 7c9d 0fbe
00000350: 938e 203d 6788 8b3d 162f 12bd 0bc9 b8bc
00000360: 972e 043e 6080 9b3d a3e1 7bbd a7a9 00bb
00000370: 9afa 8ebd 6e2a 6c3d f4dc 053c 2dad 943d
00000380: cb4a b53d e73d 86bd aed8 b53d 4e4b 693c
00000390: 3d95 c23c c5cf 683d 9974 89bc 694c 243d
000003a0: 97c5 4a3d 6213 13be eed2 8abd 03f9 a6bd
000003b0: 02b1 adbb 3862 893b 8c2b d23c af16 b23d
000003c0: 9ee5 213d 0693 ffbd c45b c5bd e878 92bd
000003d0: 2776 193d 8183 353d 61b8 e13d 5226 113d
000003e0: bae4 cc3d 5364 07bd aff4 703d 9022 b7bd
000003f0: 1bcc de3d 4954 03be ef8b 2bbd 2944 3d3d

post_net.bias f4 [4]
-0.020899912 0.008340913 -0.024837874 -0.01585095
00000000: 4b36 abbc 53a8 083c cc78 cbbc dad9 81bc

onnx::MatMul_20 f4 [768, 256]
0.028687613 -0.0022540032 0.01188297 0.047237113 0.0066985996 -0.017394772 0.0045668124 -0.024549738
-0.052284703 -0.069426425 -0.034156527 0.008723569 0.05777661 0.034388978 0.06331674 -0.021937339
0.019986276 0.00027636415 -0.05022454 0.036288004 -0.060076617 -0.03118903 -0.041387476 0.0043722386
0.030207999 0.06342581 0.02323376 0.018303944 0.013920239 -0.031025486 0.022277245 -0.0089675635
0.042063322 -0.04603274 0.031665094 0.016300352 -0.012896985 -0.02827594 -0.010094862 0.0022785019
-0.05180624 0.031291436 -0.03280846 -0.051465962 0.04453609 -0.0315448 -0.076699756 0.060016263
-0.061083347 0.0025260937 0.0116550755 -0.028091453 0.013049447 -0.022320978 0.02745297 0.020956257
-0.006681229 0.04347613 -0.030564958 0.016505374 -0.0020199118 -0.040120628 0.013177174 0.0686412
0.041508142 0.0044894847 -0.027240032 0.048958667 0.034578625 -0.02812766 0.0051845056 -0.056396767
0.016045853 0.07611017 -0.040237837 0.02616356 0.030145353 -0.010509199 0.041481465 0.014906224
-0.009312193 -0.01315827 0.002577734 -0.03668515 -0.054808073 -0.015481344 -0.029058712 0.037024446
-0.03767975 0.022559864 -0.03199943 -0.025505692 0.033428326 0.008534536 0.049659014 -0.026882512
-0.0031131709 -0.057205487 0.0557317 -0.052578285 -0.0012409356 -0.073121265 -0.0059231115 0.0425469
-0.044045135 0.03697761 -0.0074583325 0.037900858 0.026623022 -0.028794764 -0.021287287 0.022933701
-0.041582882 -0.056214876 0.0013058732 0.02650295 -0.020040574 -0.050571106 0.012128819 0.014561688
-0.016749965 0.011873458 0.033839107 0.021165136 -0.023712194 0.026332013 -0.002338217 0.044777647
-0.013941824 -0.0108678145 -0.033565782 -0.017271463 -0.009616359 0.029274646 -0.020921225 -0.08607702
-0.006816455 0.042130228 0.019685198 0.017959192 -0.04461153 -0.116256915 0.0046431725 0.0469745
0.0075616757 0.06817487 -0.06764498 0.023384862 0.0006050762 -0.02356289 0.021611976 0.016916364
-0.004990986 0.051254947 -0.04842749 0.008599882 0.0047590346 0.070216104 -0.052143876 0.016752727
0.028212078 0.0016413499 -0.07055338 0.04020216 0.0013530885 0.058683243 -0.07611724 -0.044676766
-0.07005582 -0.007996306 -0.021737687 -0.0019017322 0.03066255 -0.016775215 0.02851872 -0.024019953
0.009936239 0.10403277 0.061347514 0.051811237 0.03737463 0.025642598 -0.05698833 -0.023145648
-0.008398599 -0.013390989 -0.020403294 0.020297507 -0.067396685 0.03619767 0.028620841 0.0029028554
-0.040866334 -0.05385531 0.024397982 0.0010767106 0.05839013 -0.015743654 0.044759396 -0.012853301
-0.010578856 -0.048593786 0.006489926 -0.0368926 -0.012262581 0.052787635 0.02813327 0.046782795
-0.041832723 0.0053644944 -0.009583348 -0.023706611 0.0200725 0.021181008 0.004951045 0.033584155
0.040098842 0.022799784 -0.0032980877 -0.019536382 -0.038181033 0.008933087 -0.030405054 -0.012466238
0.013879315 -0.017627494 0.06960734 -0.008931066 0.013067066 -0.012184844 -0.04388541 -0.05132946
0.035404745 0.021207785 0.06517567 -0.040274356 -0.010668991 0.059137262 -0.07096647 -0.027545124
0.03309666 0.015851734 -0.047171123 -0.03471428 0.05117073 -0.07329211 0.041836265 -0.0022890894
0.0516144 -0.029448114 0.03685339 0.013392778 -0.017296897 0.06007236 -0.0043948134 -0.038437802
00000000: 4902 eb3c e6b7 13bb cab0 423c b47b 413d
00000010: ed7f db3b 7b7f 8ebc 33a5 953b 881c c9bc
00000020: 7c28 56bd 712f 8ebd b7e7 0bbd 4ded 0e3c
00000030: 2ba7 6c3d 75db 0c3d 35ac 813d efb5 b3bc
00000040: 42ba a33c f8e4 9039 3fb8 4dbd bba2 143d
00000050: e612 76bd 2380 ffbc ea85 29bd ff44 8f3b
00000060: c476 f73c 64e5 813d ba54 be3c 27f2 953c
00000070: b711 643c 2929 febc c57e b63c b0ec 12bc
00000080: 974a 2c3d d48c 3cbd 42b3 013d 5188 853c
00000090: e04d 53bc f2a2 e7bc ec64 25bc eb52 153b
000000a0: c832 54bd 732b 003d 2a62 06bd f9cd 52bd
000000b0: 7a6b 363d 1f35 01bd c314 9dbd 9dd3 753d
000000c0: 8832 7abd d28c 253b eef4 3e3c 0c20 e6bc
000000d0: 59cd 553c 7cda b6bc 0de5 e03c 75ac ab3c
000000e0: 36ee dabb 0714 323d 5d63 fabc 4736 873c
000000f0: 7f60 04bb 8755 24bd 13e5 573c c293 8c3d
00000100: 7104 2a3d 871c 933b 7d26 dfbc e288 483d
00000110: 51a2 0d3d fa6b e6bc c9e2 a93b 4c00 67bd
00000120: 9872 833c a6df 9b3d 6ed0 24bd f654 d63c
00000130: 63f3 f63c c72e 2cbc 78e8 293d 3c39 743c
00000140: 2b92 18bc c995 57bc 33ef 283b 2b43 16bd
00000150: 6e7e 60bd 77a5 7dbc 890c eebc f2a6 173d
00000160: 1556 1abd 77cf b83c d611 03bd 50f1 d0bc
00000170: 24ec 083d 70d4 0b3c 4067 4b3d b738 dcbc
00000180: 5706 4cbb 4d50 6abd ec46 643d 545c 57bd
00000190: e4a6 a2ba 9ac0 95bd a916 c2bb a945 2e3d
000001a0: ac68 34bd d675 173d 0765 f4bb ee3d 1b3d
000001b0: 8618 da3c ffe2 ebbc ad62 aebc 75df bb3c
000001c0: d052 2abd 9241 66bd d529 ab3a b71c d93c
000001d0: 212c a4bc a623 4fbd f4b7 463c 2594 6e3c
000001e0: 3937 89bc e488 423c e09a 0a3d 8262 ad3c
000001f0: 1340 c2bc 3cb6 d73c c63c 19bb c468 373d
00000200: 406c 64bc eb0e 32bc 467c 09bd e27c 8dbc
00000210: ef8d 1dbc 62d1 ef3c fd62 abbc 2649 b0bd
00000220: 925c dfbb bf90 2c3d da42 a13c 281f 933c
00000230: 94ba 36bd 1b18 eebd c125 983b 5568 403d
00000240: efc7 f73b 449f 8b3d 7489 8abd 9c91 bf3c
00000250: fa9d 1e3a f606 c1bc 990b b13c 3094 8a3c
00000260: 6d8b a3bb b5f0 513d e75b 46bd 85e6 0c3c
00000270: adf1 9b3b 76cd 8f3d d194 55bd 043d 893c
00000280: 041d e73c 9022 d73a 4a7e 90bd 05ab 243d
00000290: 1e5a b13a d75d 703d 5be3 9bbd fcfe 36bd
000002a0: 6d79 8fbd f002 03bc 3c13 b2bc 8b43 f9ba
000002b0: 0730 fb3c 2d6c 89bc 17a0 e93c 7ec5 c4bc
000002c0: 9bcb 223c 220f d53d 8847 7b3d 0538 543d
000002d0: 2416 193d 6d10 d23c 986c 69bd f19b bdbc
000002e0: 479a 09bc e165 5bbc cf24 a7bc f546 a63c
000002f0: 4607 8abd 0244 143d 4176 ea3c d53d 3e3b
00000300: 7563 27bd 6397 5cbd 47de c73c 6a20 8d3a
00000310: 7d2a 6f3d d6f8 80bc a155 373d a796 52bc
00000320: f052 2dbc 470a 47bd 72a9 d43b b21c 17bd
00000330: fee8 48bc d937 583d be77 e63c 519f 3f3d
00000340: ca58 2bbd a4c8 af3b 7a03 1dbc 5e34 c2bc
00000350: 156f a43c cb83 ad3c 603c a23b 8a8f 093d
00000360: af3e 243d 9dc6 ba3c bb24 58bb c30a a0bc
00000370: b763 1cbd 155c 123c 0514 f9bc 313f 4cbc
00000380: 1166 633c 8967 90bc 4b8e 8e3d 9b53 12bc
00000390: 3f17 563c f1a2 47bc 30c1 33bd d73e 52bd
000003a0: 9104 113d f3bb ad3c d27a 853d b9f6 24bd
000003b0: fecc 2ebc ea39 723d de56 91bd 50a6 e1bc
000003c0: 5d90 073d 7fdb 813c 8236 41bd 9030 0ebd
000003d0: 6698 513d 2c1a 96bd 815c 2b3d 8c04 16bb
000003e0: 9f69 533d 2c3d f1bc 95f3 163d 626d 5b3c
000003f0: 39b2 8dbc 6f0e 763d 5e02 90bb f570 1dbd
